(4176, 144, 1) (4176, 1)
Model: "sequential_3"
_________________________________________________________________
 Layer (type)                Output Shape              Param #   
=================================================================
 lstm_6 (LSTM)               (None, 144, 64)           16896     
                                                                 
 dropout_6 (Dropout)         (None, 144, 64)           0         
                                                                 
 lstm_7 (LSTM)               (None, 32)                12416     
                                                                 
 dropout_7 (Dropout)         (None, 32)                0         
                                                                 
 dense_3 (Dense)             (None, 1)                 33        
                                                                 
=================================================================
Total params: 29,345
Trainable params: 29,345
Non-trainable params: 0
_________________________________________________________________
Epoch 1/30
66/66 [==============================] - 13s 135ms/step - loss: 0.0362 - val_loss: 0.0011
Epoch 2/30
66/66 [==============================] - 8s 122ms/step - loss: 0.0048 - val_loss: 4.1459e-04
…
