(4176, 144, 1) (4176, 1)
Model: "sequential_6"
_________________________________________________________________
 Layer (type)                Output Shape              Param #   
=================================================================
 lstm_12 (LSTM)              (None, 144, 64)           16896     
                                                                 
 dropout_12 (Dropout)        (None, 144, 64)           0         
                                                                 
 lstm_13 (LSTM)              (None, 32)                12416     
                                                                 
 dropout_13 (Dropout)        (None, 32)                0         
                                                                 
 dense_6 (Dense)             (None, 1)                 33        
                                                                 
=================================================================
Total params: 29,345
Trainable params: 29,345
Non-trainable params: 0
_________________________________________________________________
Epoch 1/30
66/66 [==============================] - 14s 149ms/step - loss: 0.0207 - val_loss: 7.2953e-04
Epoch 2/30
66/66 [==============================] - 9s 136ms/step - loss: 0.0041 - val_loss: 3.3923e-04
…
